…
значально было 10 эпох. 125эпох  - отлично!!!\n","                 x_test, y_test, title='предсказание тренда')"],"execution_count":1370,"outputs":[{"output_type":"stream","name":"stdout","text":["Model: \"model_48\"\n","_________________________________________________________________\n"," Layer (type)                Output Shape              Param #   \n","=================================================================\n"," input_49 (InputLayer)       [(None, 19, 15)]          0         \n","                                                                 \n"," flatten_144 (Flatten)       (None, 285)               0         \n","                                                                 \n"," repeat_vector_96 (RepeatVec  (None, 4, 285)           0         \n"," tor)                                                            \n","                                                                 \n"," conv1d_96 (Conv1D)          (None, 4, 38)             54188     \n","                                                                 \n"," max_pooling1d_96 (MaxPoolin  (None, 2, 38)            0         \n"," g1D)                                                            \n","                                                                 \n"," flatten_145 (Flatten)       (None, 76)                0         \n","                                                                 \n"," repeat_vector_97 (RepeatVec  (None, 4, 76)            0         \n"," tor)                                                            \n","                                                                 \n"," conv1d_97 (Conv1D)          (None, 4, 19)             7239      \n","                                                                 \n"," max_pooling1d_97 (MaxPoolin  (None, 2, 19)            0         \n"," g1D)                                                            \n","                                                                 \n"," flatten_146 (Flatten)       (None, 38)                0         \n","                                                                 \n"," dense_96 (Dense)            (None, 1900)              74100     \n","                                                                 \n"," dropout_48 (Dropout)        (None, 1900)              0         \n","                                                                 \n"," dense_97 (Dense)            (None, 2)                 3802      \n","                                                                 \n","=================================================================\n","Total params: 139,329\n","Trainable params: 139,329\n","Non-trainable params: 0\n","_________________________________________________________________\n","Epoch 1/150\n","49/49 [==============================] - 1s 11ms/step - loss: 0.6967 - accuracy
…
